hand-gesture-recognition-mediapipe-main/model/keypoint_classifier/keypoint_classifier.tflite (tflite, 6580 bytes, 6 tensors)

arith.constant f4 [5, 10]
0	0xbec41713	-0.38298854
1	0x3f992163	1.1963314
2	0x3e6f8d7e	0.23393819
3	0x3f5f5312	0.8723613
4	0xbf4092a9	-0.75223786
5	0xbf80fee2	-1.0077784
6	0xbf129729	-0.572619
7	0x3f44c228	0.7685876
8	0xbe93995d	-0.28827944
9	0x3f4923a1	0.7856999
10	0x3f84d743	1.0378193
11	0xbe80fbd2	-0.25192124
12	0x3f55aea3	0.834696
13	0xbe5ef7d9	-0.21774234
14	0x3f4bafc9	0.795651
15	0xbef7b85c	-0.48382843
16	0x3f4b7ff8	0.7949214
17	0xbec3d3e8	-0.3824761
18	0x3f956b8a	1.1673443
19	0xbe02b03a	-0.12762538
20	0x3ef109a2	0.47077662
21	0xbf2812bd	-0.6565359
22	0xbf02609c	-0.50928664
23	0xbfd86a22	-1.6907389
24	0xbf76816c	-0.9629123
25	0x3f97cafd	1.1858822
26	0xbf0e305a	-0.5554253
27	0x3f1eddbc	0.6205709
28	0xbe0ba9c4	-0.13638979
29	0xbf6487d7	-0.89269775
30	0xbf9bee2d	-1.218206
31	0x3f907add	1.1287495
32	0xbfd3ec57	-1.65565
33	0x3f215f79	0.63036305
34	0x3f25209b	0.64502877
35	0xbf825904	-1.0183415
36	0xbd380fd5	-0.044936974
37	0xc0097780	-2.1479187
38	0x3f276590	0.6538935
39	0x3f552a4c	0.83267665
40	0xbef99d89	-0.48753002
41	0x3e45d186	0.19318208
42	0x3ec9c431	0.39407495
43	0x3f3f358b	0.74691075
44	0xbf71f1e0	-0.94509697
45	0x3f2216d4	0.6331608
46	0xbfb213af	-1.3912257
47	0xbf2d359f	-0.67659944
48	0xbea986c2	-0.33110625
49	0xbfa99a03	-1.3250126

arith.constant1 f4 [10, 20]
0	0x3f8dbf91	1.1074086
1	0x3d9d2c47	0.07674461
2	0xbd46ad41	-0.04850507
3	0x3de6c810	0.11268628
4	0x3e5160a5	0.20447023
5	0xbd35823b	-0.04431365
6	0x3f357c4e	0.708928
7	0x3f1b0d0c	0.6056678
8	0xbd935515	-0.071939625
9	0x3f4a5354	0.790334
10	0xbe791cfd	-0.24327464
11	0xbe1dccd1	-0.15410163
12	0x3f3660eb	0.71241635
13	0x3e7a2895	0.24429543
14	0x3c161964	0.009161327
15	0x3e11327c	0.14179415
16	0x3f11a29d	0.56888753
17	0xbedecd2e	-0.43515915
18	0x3e984a59	0.29744223
19	0x3f3e47db	0.7432839
20	0xbe129351	-0.14314009
21	0x3f1c2ff1	0.6101065
22	0xbe82f207	-0.25575277
23	0xbdfa2363	-0.12213781
24	0x3e0eeaaf	0.13956712
25	0x3e161581	0.1465664
26	0x3b652a69	0.0034967905
27	0x3d86d6e6	0.065839574
28	0xbe4a554e	-0.19759104
29	0xbd4e9e21	-0.050443772
30	0xbf3cc7c4	-0.7374232
31	0xbe9e9fde	-0.30981344
32	0xbd8f61da	-0.070010856
33	0xbedb7097	-0.42859337
34	0x3f2f331d	0.6843737
35	0x3f11d7ab	0.5696971
36	0x3ee9770c	0.45598638
37	0xbe976ea0	-0.29576588
38	0xbd2d2268	-0.04226914
39	0xbd8b7206	-0.068088576
40	0x3f0d721b	0.55252236
41	0x3d95c1a4	0.07312325
42	0x3dc10731	0.094252
43	0xbdee8cf8	-0.116479814
44	0x3f794427	0.9736962
45	0x3f7f019d	0.99611837
46	0x3f0bbad9	0.5458198
47	0x3f0971ef	0.53689474
48	0x3c2a96c0	0.010411918
49	0x3f0cec30	0.55047894
50	0x3b9c2e51	0.0047662635
51	0x3ec0fdb6	0.37693566
52	0xbdb5f111	-0.088838704
53	0x3f724089	0.9462972
54	0xbde6d3c8	-0.11270863
55	0xbd4ca7af	-0.049964603
56	0x3ea50132	0.32227474
57	0x3f15588f	0.58338255
58	0x3efe4879	0.49664667
59	0x3db1d56f	0.08683287
60	0xbd0027b6	-0.03128787
61	0x3f897e01	1.0741578
62	0x3f491d69	0.785605
63	0xbe03db52	-0.12876633
64	0x3e55a4d4	0.20863658
65	0x3f2112ae	0.6291913
66	0x3e209169	0.1568047
67	0x3ddeb047	0.10873466
68	0x3e291880	0.16513252
69	0xbec518cc	-0.3849548
70	0x3ec6e633	0.38847503
71	0x3f8551b2	1.0415556
72	0xbdf235a2	-0.11826636
73	0x3e85467f	0.26030347
74	0x3f09d0da	0.5383431
75	0x3f05cc92	0.52265275
76	0x3df531a0	0.11972356
77	0x3fa48fcf	1.2856387
78	0x3de35635	0.11100427
79	0xbb54d1e6	-0.0032473742
80	0x3ee1a8cc	0.44074094
81	0x3e6bb8d4	0.23019725
82	0x3e72c340	0.23707294
83	0x3f1b5f13	0.60691947
84	0xbd1ebcb2	-0.038754173
85	0x3e094dbf	0.13408564
86	0xbf028d1c	-0.50996566
87	0xbea0329d	-0.31288615
88	0x3d45bca5	0.04827561
89	0x3f813da0	1.0096931
90	0xbd71f41d	-0.059070695
91	0x3cb43853	0.021999514
92	0xbf864963	-1.0491146
93	0xbf5483a1	-0.8301335
94	0xbd799316	-0.060931288
95	0x3d9e2b61	0.077231176
96	0x3ace970c	0.0015761568
97	0xbe53bfff	-0.2067871
98	0x3f2ad430	0.6673002
99	0xbed489ed	-0.4151148
100	0x3e9de74b	0.30840525
101	0xbd83cb2c	-0.06435236
102	0xbf90b4ef	-1.1305217
103	0xbe8ab732	-0.27092892
104	0xbf31e962	-0.6949674
105	0xbef30f9f	-0.47472855
106	0x3eb2669a	0.34843904
107	0x3f0cf42a	0.55060065
108	0xbf68438d	-0.90728074
109	0xbe024545	-0.12721737
110	0xbf4bddb2	-0.79635155
111	0xbd3a5e5a	-0.045500137
112	0x3e3a7dfa	0.18212119
113	0xbe911c67	-0.28341982
114	0x3e04a785	0.12954529
115	0xbeb6ad0f	-0.35678908
116	0xbdd91047	-0.10598808
117	0x3d76256d	0.060094286
118	0x3f21a17a	0.6313702
119	0xbf211042	-0.6291543
120	0x3e847e38	0.25877547
121	0x3e11a7fd	0.14224239
122	0xbe35b418	-0.17744482
123	0x3f189c29	0.5961328
124	0xbd4fbf23	-0.05071939
125	0x3df0f074	0.11764613
126	0x3f2d08b3	0.675914
127	0xbec5c582	-0.3862725
128	0x3e2cac9d	0.16862722
129	0xbdb75f83	-0.08953764
130	0xbc7056ea	-0.014669159
131	0xbcb6f1f7	-0.022332175
132	0x3f3bdaca	0.7338072
133	0xbf32ecac	-0.6989238
134	0x3ede96c9	0.43474415
135	0x3f1d2b2f	0.6139402
136	0xbe3d5dfd	-0.18492885
137	0xbe826c8c	-0.2547344
138	0x3ee4c1f2	0.4467922
139	0x3e693c5f	0.22776936
140	0x3ebec76d	0.37261525
141	0xbcf422c3	-0.029801732
142	0xbd46ed35	-0.048566062
143	0xbd977592	-0.07395472
144	0x3ede8e29	0.43467835
145	0x3f07fbcc	0.53118587
146	0x3d1eed4d	0.038800526
147	0x3f27afc7	0.6550259
148	0xbbf66c7a	-0.0075202556
149	0x3cdf8b96	0.02728824
150	0x3e9342f5	0.28762022
151	0xbe191e84	-0.14953047
152	0xbe8e537c	-0.2779807
153	0x3d9316fc	0.07182118
154	0x3f306585	0.68904907
155	0x3f1f9c86	0.6234821
156	0x3f41b1ca	0.7566191
157	0xbd63c289	-0.055605445
158	0x3f46dd50	0.77681446
159	0x3f4cef47	0.8005261
160	0x3ef4a795	0.47784105
161	0x3e7e5fb0	0.2484119
162	0x3e2ca75b	0.16860716
163	0xbf84a574	-1.0362992
164	0x3e95d6b2	0.29265362
165	0xbca9901a	-0.020698596
166	0xbf641e7e	-0.8910903
167	0x3e65c197	0.2243713
168	0x3e4c7020	0.19964647
169	0x3f3d2398	0.73882437
170	0x3d7f553d	0.06233715
171	0x3d9230fe	0.07138251
172	0x3f6ae4bd	0.91755277
173	0x3ef39a03	0.4757844
174	0xb8f7d360	-0.000118172495
175	0xbdf806ff	-0.121107094
176	0xbd13b43d	-0.03606056
177	0xbeb177a1	-0.34661582
178	0x3e7f3014	0.24920684
179	0x3cad6b13	0.021169221
180	0x3ea55d58	0.32297778
181	0xbe79fdf6	-0.24413285
182	0x3f304d80	0.68868256
183	0x3f2f4594	0.6846554
184	0x3f92189b	1.1413759
185	0x3f51c4be	0.8194083
186	0x3dac2fe1	0.0840757
187	0x3e7ab24a	0.24482074
188	0x3f41062e	0.75400054
189	0xbec206ec	-0.37895906
190	0x3f17ef54	0.5934956
191	0xbd63791e	-0.05553543
192	0xbea8477d	-0.3286704
193	0xbcd452ab	-0.025918325
194	0xbd2ae2ab	-0.041720074
195	0x3f3fa786	0.74864995
196	0xbf6152a1	-0.88016707
197	0xbda4ad8a	-0.080409124
198	0x3ea1b183	0.31580743
199	0x3deb90e7	0.11502247

arith.constant2 f4 [5]
0	0xbe9bbe3b	-0.30418572
1	0xbef64295	-0.48097673
2	0x3f08d02b	0.5344264
3	0xbe713b49	-0.23557772
4	0x3f0f5707	0.5599217

sequential_1/dense_1_2/Add/ReadVariableOp f4 [10]
0	0x3e93bce2	0.28855044
1	0xbeda4a8f	-0.4263501
2	0xbe8bfaa1	-0.27339652
3	0xbc9390fa	-0.018013466
4	0x3e7c2290	0.2462256
5	0x3f8d8861	1.1057245
6	0x3db8a9fc	0.09016797
7	0x3ea21383	0.3165551
8	0xbd06d898	-0.032921404
9	0x3ed527dd	0.41631976

sequential_1/dense_1/Add/ReadVariableOp f4 [20]
0	0xbf51bd2d	-0.81929284
1	0xbefbdfcc	-0.4919418
2	0xbedd35b3	-0.43205032
3	0xbf542005	-0.8286136
4	0xbf1432d5	-0.57890064
5	0xbf059bec	-0.5219104
6	0xbf461802	-0.77380383
7	0x3d11c026	0.035583638
8	0xbe982911	-0.2971883
9	0xbf401e00	-0.75045776
10	0xbe9bd250	-0.30433893
11	0xbecc5b5d	-0.39913455
12	0xbf46f718	-0.77720785
13	0xbf48cc62	-0.78436863
14	0xbe907bc9	-0.2821944
15	0xbea4c7a3	-0.3218356
16	0x3f2ee6ee	0.6832112
17	0xbf048876	-0.5177072
18	0xbf6fd45a	-0.936834
19	0xbe3269d5	-0.17423184

sequential_1/dense_1/MatMul f4 [20, 42]
0	0xbdc5576e	-0.096358165
1	0xbe991c9f	-0.2990465
2	0x3f716b6c	0.9430454
3	0x3e55aaca	0.20865932
4	0x3e993fa0	0.29931355
5	0x3d907a0f	0.07054531
6	0x3ed106f1	0.40825608
7	0xbd1c2b7a	-0.0381274
8	0x3e88a58e	0.26688808
9	0xbeaf51b7	-0.3424203
10	0x3ebf5490	0.37369204
11	0x3f0f4abf	0.5597343
12	0x3d90db8d	0.07073126
13	0x3dca6827	0.09883147
14	0xbdc11938	-0.09428638
15	0x3dab5e1b	0.083675586
16	0xbe5303da	-0.20606938
17	0x3db83d56	0.08996074
18	0x3e812bcd	0.2522873
19	0x3ebbf2f5	0.367088
20	0x3d9f9d30	0.07793653
21	0x3d6a1153	0.057145428
22	0xbde64cc4	-0.11245111
23	0xbd16a8f1	-0.03678221
24	0xbe514428	-0.20436156
25	0xbd842328	-0.06452018
26	0x3ed151a7	0.40882608
27	0x3d2d313c	0.04228328
28	0x3e764623	0.24050193
29	0x3d0a096d	0.033700395
30	0xbde9eb65	-0.11421851
31	0xbd1426e2	-0.036169894
32	0xbe4071a2	-0.18793347
33	0x3d02120f	0.031755503
34	0x3eeee9a6	0.46662635
35	0xbe335694	-0.17513496
36	0x3e9d490d	0.30719796
37	0xbdcfc855	-0.10145632
38	0x3cfd4a3c	0.030919187
39	0xbd0617d0	-0.032737553
40	0xbc95c8e2	-0.018284265
41	0x3bac230c	0.0052532014
42	0x3e17a720	0.14809847
43	0x3db610a8	0.08889896
44	0xbe0d8752	-0.13821152
45	0x3ef6eef9	0.48229197
46	0x3da5c255	0.080937065
47	0x3e8a3aae	0.26997894
48	0x3bbfa8d0	0.0058489814
49	0x3e6979d3	0.22800379
50	0x3e0abbc0	0.13548183
51	0x3e4b6f66	0.19866714
52	0x3cd1b22a	0.02559765
53	0x3d7ee3ab	0.06222884
54	0xbcd8d026	-0.02646644
55	0x3db1356c	0.086527675
56	0x3d074d7b	0.033032876
57	0x3e0b30d2	0.13592842
58	0x3d7fd69c	0.062460527
59	0x3e08fe28	0.13378203
60	0x3dc8c2a6	0.09802751
61	0x3b6240ce	0.003452349
62	0x3d967010	0.07345593
63	0xbb8fbc03	-0.0043864264
64	0xbe4ace36	-0.19805226
65	0xbeb79190	-0.35853243
66	0xbedb3e36	-0.428209
67	0xbf3f8091	-0.7480555
68	0x3de4fbe9	0.111808605
69	0xbcb1d42e	-0.02170762
70	0x3d90ec39	0.07076306
71	0xbd186213	-0.037202906
72	0xbde65798	-0.11247176
73	0xbe7c8f7b	-0.24664108
74	0xbf274708	-0.6534276
75	0xbefedb87	-0.4977686
76	0x3e09df8a	0.1346418
77	0xbdf62239	-0.12018246
78	0x3c96a68b	0.01838996
79	0xbca19b00	-0.01972723
80	0xbdf1363f	-0.11777925
81	0xbe5c4b2e	-0.21513054
82	0xbe822a20	-0.25422764
83	0xbe954284	-0.2915231
84	0xbdab54e2	-0.083657995
85	0x3e81c842	0.25348097
86	0x3dec98af	0.115525596
87	0x3e192d75	0.14958747
88	0xbc70fba3	-0.014708432
89	0x3e4d4751	0.20046736
90	0x3d8d2205	0.06891254
91	0x3e268c24	0.16264397
92	0x3e213d98	0.15746152
93	0x3e5d5dde	0.21617839
94	0x3dfb65cc	0.122752756
95	0xbd8d8830	-0.06910741
96	0x3b273fd3	0.002552022
97	0x3d0da390	0.034579813
98	0xbd24b9d9	-0.0402163
99	0x3d70d9b1	0.058801357
100	0xbd82e56f	-0.06391417
101	0x3d9ead8e	0.07747947
102	0x3e19f5d0	0.15035176
103	0xbcf9d1d0	-0.030495554
104	0xbbe0fe94	-0.0068662856
105	0x3d831a2f	0.064014785
106	0xbdc06d99	-0.09395904
107	0xbb04dce1	-0.0020273256
108	0xbdba5cba	-0.090997174
109	0x3df24426	0.118294045
110	0x3e53093e	0.20608994
111	0x3c443f1a	0.011977935
112	0xbd615103	-0.0550089
113	0x3d3e19ea	0.046411432
114	0xbdd11cef	-0.10210597
115	0xbe80f212	-0.25184685
116	0xbe038efc	-0.12847513
117	0xbf5aa0cf	-0.85401624
118	0x3e45b045	0.19305523
119	0x3d55caa2	0.0521952
120	0x3d5f003f	0.054443594
121	0x3cc9ce33	0.024634456
122	0xbe5f29ce	-0.21793291
123	0xbdef1e3d	-0.11675689
124	0xbea42d2d	-0.32065716
125	0xbf4aed54	-0.79268384
126	0x3d770a70	0.06031269
127	0xbcc6e680	-0.024279833
128	0xbf6373c3	-0.88848513
129	0xbeca2062	-0.3947783
130	0xbe872039	-0.2639177
131	0xbe604f26	-0.21905193
132	0xbed6895d	-0.41901675
133	0xbdcb85a4	-0.09937599
134	0xbe933323	-0.28749952
135	0xbf159302	-0.5842744
136	0xbc9ad2df	-0.01889938
137	0x3d1da55b	0.038487773
138	0xbd5df1e6	-0.05418577
139	0x3d2ab469	0.04167596
140	0x3d38e883	0.045143615
141	0x3e80e236	0.25172585
142	0x3e147012	0.14495876
143	0x3e93feb3	0.28905258
144	0xbdee65ba	-0.116404966
145	0xba20103a	-0.00061059336
146	0xbdbc750a	-0.09202011
147	0xbcf7c1cd	-0.030243779
148	0xbc9ea855	-0.019367376
149	0x3c8d6cec	0.017263852
150	0xbe05ae54	-0.13054782
151	0x3d406bd9	0.04697785
152	0xbd119ee7	-0.03555193
153	0xbc724e9d	-0.014789251
154	0x3e193db3	0.14964943
155	0xbe1ab30d	-0.15107365
156	0x3cfee57f	0.031115292
157	0xbe3e3965	-0.18576582
158	0xbe3e9e75	-0.18615134
159	0xbdf2460b	-0.11829766
160	0xbe67e1a9	-0.22644676
161	0x3c81a29f	0.015824614
162	0x3df4a962	0.1194637
163	0xbe72b249	-0.23700823
164	0x3dbf3822	0.09336878
165	0xbe908a48	-0.282305
166	0xbcdc0a00	-0.026860237
167	0xbe215420	-0.15754747
168	0x3dc26814	0.094925076
169	0x3e4690a4	0.19391114
170	0x3f34b890	0.7059412
171	0x3ebff0ed	0.374885
172	0x3edbd11c	0.42932975
173	0x3c2f4867	0.010698414
174	0x3f2719b6	0.65273607
175	0x3cf695b7	0.030100686
176	0x3f27e662	0.6558591
177	0xbcbf4de2	-0.023352567
178	0xbda7e7b9	-0.081984945
179	0xbcb9c95b	-0.022679022
180	0xbd8f4021	-0.069946535
181	0x3cd6efb7	0.026237352
182	0xbd6b3cfc	-0.057431206
183	0xbc0b859c	-0.008515742
184	0xbd0f528f	-0.034990843
185	0xbd0d0650	-0.03442985
186	0xbdb0200d	-0.08599863
187	0x3c366433	0.011132288
188	0xbdd0f104	-0.1020222
189	0x3d19e5f3	0.037572812
190	0xbd131fa1	-0.035918836
191	0xb9a2e7f8	-0.00031071878
192	0x3dad9aad	0.08476768
193	0x3d2cef60	0.042220473
194	0x3cf1e18a	0.02952649
195	0x3d040465	0.032230753
196	0xbe0ea72f	-0.13930963
197	0x3c3c685c	0.011499491
198	0xbea7b15a	-0.32752496
199	0xbe3bfe73	-0.18358783
200	0xbf01c340	-0.5068855
201	0xbea5239c	-0.3225373
202	0x3e553950	0.20822644
203	0x3e15ee43	0.14641671
204	0xbdfe5574	-0.12418643
205	0x3e028460	0.1274581
206	0xbec914dc	-0.39273727
207	0xbd581d2d	-0.0527622
208	0xbf0e100e	-0.5549325
209	0xbe3874be	-0.18013284
210	0x3d5d8228	0.054079205
211	0xbda6e594	-0.08149257
212	0x3e565cc1	0.2093382
213	0xbba042d8	-0.004890781
214	0x3e0fd329	0.14045395
215	0xbdaa2cee	-0.08309351
216	0x3e5920c5	0.21203907
217	0xbed0a9dc	-0.40754592
218	0x3def1edd	0.116758086
219	0xbf10f326	-0.56621015
220	0xbd4e46b6	-0.050360404
221	0x3d0d7f8a	0.03454546
222	0xbd2dd17e	-0.042436115
223	0x39bd7ded	0.0003614271
224	0x3bb53d36	0.0055309786
225	0x3a7afbb6	0.0009574251
226	0x3c58f34b	0.013241599
227	0x3cfd12b5	0.03089271
228	0xbd92e374	-0.071722895
229	0x3d9d2575	0.0767316
230	0xbc079fc9	-0.008277842
231	0xbe7ef5f7	-0.24898516
232	0xbddf3933	-0.10899582
233	0xbb23d8f1	-0.0025001133
234	0xbe4ce4cd	-0.20009156
235	0x3ebb59ce	0.36591953
236	0xbd696b67	-0.056987192
237	0xbd6f513b	-0.058427077
238	0x3d90a86a	0.070633724
239	0xbe24aa66	-0.16080627
240	0xbddae1b2	-0.10687579
241	0x3e6a7599	0.22896422
242	0xbeb186a2	-0.3467303
243	0x3f2fd1a5	0.6867927
244	0x3dff8c57	0.124779396
245	0xbe4c8f7f	-0.19976614
246	0x3e3971d5	0.1810983
247	0xbc15a992	-0.009134667
248	0x3dd3b630	0.10337484
249	0x3ea7f3ea	0.3280328
250	0xbee2e34d	-0.44314042
251	0x3f558006	0.83398473
252	0xbe9da81e	-0.30792326
253	0x3e38fb0e	0.1806452
254	0x3e53fd18	0.20702016
255	0xbf13ad25	-0.5768607
